test/best_parameters.npy (npy, 22800 bytes, 1 tensors)

array f8 [710, 4]
000000 88 3c 92 56 8a 5d cd bf b0 ea bc cc 4b c5 c7 bf
       -0.22941712596045627 -0.18570849892588148
000010 40 8a 08 d1 14 77 d7 3f a0 6b 93 b2 b3 75 d5 bf
       0.3666431466428186 -0.3353089565186398
000020 68 80 91 cf dd 1a e0 bf 38 64 a7 d3 49 69 ec bf
       -0.5032795957631722 -0.8878525861611086
000030 16 2f e6 70 76 fb e1 3f 92 31 b4 70 7f 7d e5 bf
       0.5619461255132332 -0.6715695573089298
000040 d0 ba e6 26 bc 07 e3 3f ec 27 84 24 fc 7d d0 3f
       0.5946942100325376 0.2576895100215768
000050 3e b4 ff 83 de 85 e1 bf 18 8c c2 54 c3 67 e0 3f
       -0.5475914552786276 0.5126663833110596
000060 24 66 9a 2f 55 ac e8 3f a8 41 d5 bf 25 02 e0 3f
       0.7710367135761698 0.500262140916722
000070 c0 25 fe ba 2d 86 b7 3f 98 2f 54 35 e7 60 c0 3f
       0.09189115348103538 0.12795724967906774
000080 f8 13 03 f0 fd c5 e4 bf a0 23 f5 74 8f ab bd 3f
       -0.6491689384207566 0.11589905362519781
000090 6c 3c 4d d6 60 91 d4 3f 0c 17 5c a1 37 e3 da 3f
       0.32137318542385773 0.42011824376855667
0000a0 1a 12 c8 d6 3f c3 eb bf 60 21 6c e4 f5 c1 a0 3f
       -0.8675841517402347 0.03272980130538161
0000b0 62 25 0b 65 38 1b ec 3f 1c 88 3e af c1 22 ed 3f
       0.8783227895266175 0.9104927466144122
0000c0 c8 d3 fd 30 bb ce c2 3f 8c 39 0e fd 97 07 dd bf
       0.1469339360443469 -0.4535884829755552
0000d0 f4 c1 0d cd d8 f3 d4 bf d0 8c 42 3b 63 d1 e4 3f
       -0.3273832323530137 0.6505600125714412
0000e0 a2 de 29 6e a9 c3 e7 bf dc c9 cc 68 a5 2d d9 3f
       -0.7426345016128446 0.3934110186993658
0000f0 40 b9 6a 86 e0 88 ca 3f 76 55 23 6c a5 de ed 3f
       0.20730215609860103 0.9334284889288671
000100 ca ab f7 00 38 f3 ee bf 42 b3 54 73 7f 57 e5 bf
       -0.9671897906204034 -0.6669308903270592
000110 6c 37 23 ff 9c d6 e9 bf 7a 8c 97 00 e7 e7 e1 3f
       -0.8074479087024264 0.5595583926737071
000120 66 ea a0 2f 46 52 e3 3f 40 65 35 90 b8 be c3 bf
       0.6037932329412115 -0.15425784150537858
000130 36 7c f5 e8 ab c7 e7 bf d8 5b 7a e0 a5 a4 e9 3f
       -0.7431239652613673 0.8013486275038941
000140 2a ee 35 4c ec 99 e1 bf 98 4c 8c 84 45 ce cb 3f
       -0.5500394333352621 0.21723240825722168
000150 80 60 e0 09 9f 9e ec 3f 34 e3 97 f5 4c b9 ed bf
       0.8943629448795178 -0.9288697048897121
000160 04 19 cc 8a 2a 65 d8 3f d4 24 af c9 fb bc da bf
       0.38117469362659073 -0.41778464027136164
000170 30 b5 65 f8 af e6 c2 3f e0 23 55 b2 f8 25 bf 3f
       0.14766502026342598 0.12167314866850587
000180 28 2d 6d 8b 8b ec d7 3f de de e9 9f f6 77 e0 bf
       0.3738125669085144 -0.5146439669906291
000190 fe 9c 55 d9 64 04 e5 3f c6 6f 19 c1 13 57 e6 3f
       0.6567863697827361 0.6981295367690954
0001a0 12 51 70 95 b5 dd e2 3f f6 3b 5d 2d 45 ba e7 3f
       0.5895641249394734 0.741488064386316
0001b0 b8 9e 4a 61 c3 dd c6 bf aa 69 c7 62 9c b2 ed 3f
       -0.17864267588196525 0.928053086211823
0001c0 8a 72 80 d3 d2 67 ef bf a0 b8 eb 5d 2d c4 e2 3f
       -0.9814237719434271 0.5864474138632154
0001d0 90 d6 9f 35 c5 4c db 3f 88 3c 5d 65 32 4a de 3f
       0.4265606902766672 0.47327861689422734
0001e0 40 30 8a 59 1a 2e e6 3f a8 c8 88 d0 44 82 ca bf
       0.6931277989219851 -0.20710048849429552
0001f0 76 f0 54 d2 51 98 ea 3f 80 03 82 70 e7 71 a2 bf
       0.8310937030833105 -0.036025269016142225
000200 aa db 94 2c c5 47 ee bf 28 5c 23 d1 6b 1d ed 3f
       -0.9462610121471375 0.9098414501885417
000210 88 92 a8 ca 41 b9 c3 3f d0 de 1d a5 00 45 db bf
       0.15409109492715722 -0.42608657955814255
000220 80 31 b9 4f da 70 bc bf 58 11 b3 7a d9 26 ce 3f
       -0.11109699674961426 0.2355605935209819
000230 3e 7a a9 bc a5 ee e7 bf 80 37 a5 ac c9 f9 c8 3f
       -0.7478817639165027 0.19512291841459373
000240 58 3e e5 d6 97 84 c3 bf a0 ed 93 b5 32 27 bf bf
       -0.1524839209837292 -0.1216918652825627
000250 9c 42 40 35 d7 7e d7 3f 4a d9 d3 ad 20 9a e2 bf
       0.3671167392758805 -0.5813144106930761
000260 c4 a7 9e 00 ed 16 e2 3f a0 61 8c f5 e0 25 ba bf
       0.5652985584358636 -0.10214048380692597
000270 94 2c d3 17 99 6e e5 3f a0 5b 0d 9d d7 49 dc 3f
       0.6697507348375376 0.44200697266699684
000280 64 ce 29 58 ca b5 d8 3f 0e 7f 33 08 f9 b2 e0 bf
       0.3860956059427052 -0.5218472633532387
000290 f0 b7 f2 fb 22 8b b2 3f c8 6c 7e 39 fb d8 c2 bf
       0.07243555689885262 -0.14724674517933622
0002a0 46 88 ce 97 72 3a e9 bf 14 af 24 cc 24 80 d6 bf
       -0.7883847203231731 -0.3515712731921081
0002b0 ea b7 80 b6 1a a0 e3 bf e0 27 20 ed 8c cd af bf
       -0.6132939877040802 -0.06211510080909455
0002c0 76 41 4d 63 c0 a5 e8 3f a0 dc 7f 1b 83 c5 d5 bf
       0.770233339260854 -0.3401801842259804
0002d0 a2 93 f2 c8 99 97 ea 3f 58 4d 00 d9 20 c1 c0 3f
       0.8310059475667126 0.13089380832443953
0002e0 12 37 68 08 e6 b3 e0 bf 2c 49 15 f2 cd 9c da 3f
       -0.5219602741433127 0.41582058564121627
0002f0 fc a7 2e 7b f3 a6 e2 bf 54 71 57 3a 5d d4 e4 bf
       -0.5828797727492652 -0.6509233607753608
000300 a0 ca 9c 8b 6d 8d ce 3f d2 13 5f e1 5b d7 e5 3f
       0.23869103734030706 0.6825389291558344
000310 40 8c df 7d f4 9b ba 3f a8 a6 ed 1b cf d0 e6 3f
       0.10394218514515874 0.7129893823123057
000320 78 cc d9 04 e9 0a c7 3f 48 c6 b4 56 c7 1e e2 bf
       0.18002045380453402 -0.5662571614722731
000330 30 70 26 de 13 e1 cb bf 88 fd c0 e6 70 b5 d7 3f
       -0.21780632350135098 0.37044928106839636
000340 7c 8b 5e 17 f2 65 e7 3f b0 08 54 ff 9b 60 d7 3f
       0.731194539683528 0.36527156767273095
000350 20 29 f5 e6 3d 61 db 3f 08 4a c2 61 03 8b d2 3f
       0.4278101687856566 0.289734693019597
000360 94 35 7a 61 5c 26 d8 bf 58 d4 e0 a9 9f d2 d5 bf
       -0.3773413612296619 -0.3409804495780171
000370 ac c3 da b5 69 b5 e9 bf 10 d4 d9 40 c7 a7 ba bf
       -0.8033951331946034 -0.10412259419702274
000380 68 8c 87 cb 7b 7e d7 bf 80 f2 f2 43 fd d3 97 3f
       -0.36709494472433457 0.023269612571982012
000390 70 8f 81 7b b6 ad d2 bf 2c aa f9 8b c5 3a d7 bf
       -0.2918525892366608 -0.3629621378846959
0003a0 e0 ac 32 29 02 a8 eb 3f 52 b1 77 fe 37 35 e9 bf
       0.8642588429114788 -0.7877464265889478
0003b0 d8 49 37 3d 81 38 ca bf d0 73 dd 9e cf f0 bc 3f
       -0.20484939087925969 0.11304948452511998
0003c0 d6 91 2c 44 d7 bc e3 3f d8 f0 c0 b5 03 42 e1 bf
       0.6168018657231709 -0.5393084096790757
0003d0 08 b7 c2 af 08 10 e0 bf f0 59 dd 99 dc b7 dc 3f
       -0.5019572670769046 0.44872202897877767
0003e0 98 5b 54 cb cc b4 c1 3f 10 a0 60 3a f8 51 d8 3f
       0.1383300774402556 0.3800030298320971
0003f0 f4 a7 e1 8d e0 75 eb 3f 12 c3 77 65 4e 0c e8 3f
       0.8581393023607675 0.7515022260468831
000400 5c 9c 93 09 95 62 d7 3f b2 aa 15 0b 56 88 e5 bf
       0.3653919785996942 -0.6728925911423487
000410 46 27 4c bf a7 63 e1 3f ac 84 6c 85 62 46 e2 3f
       0.5434149490622324 0.5710919004378829
000420 e0 ca 93 dd 31 8d ae bf 1c 18 f7 96 9f f3 da 3f
       -0.05967098073769761 0.4211195921201367
000430 aa b9 55 3e 95 14 e0 3f d2 51 29 30 9c 83 ed 3f
       0.5025125710943048 0.9223156872417866
000440 a8 2e 88 6e 16 07 c6 3f 24 70 ec 72 3e 79 d4 bf
       0.1720912971217008 -0.3199001428890844
000450 74 37 88 09 75 1e e1 bf 60 76 ba 65 d8 fa bb 3f
       -0.5349679170774224 0.10929634555437806
000460 f8 6c e9 5a 7a 84 e2 3f 74 68 55 38 bc 0c e3 3f
       0.5786716247197594 0.5953045940652957
000470 80 a7 53 c9 1c 57 80 3f ce da 89 31 4a bf e8 bf
       0.007978653806691716 -0.7733508079098443
000480 f0 b5 a3 37 17 a5 e6 3f d4 76 4b b9 59 25 d2 3f
       0.707652672453774 0.2835296926040034
000490 04 ef c0 a4 68 7b e4 bf e6 c3 87 1f f8 47 e1 3f
       -0.6400645463795347 0.540035306532556
0004a0 08 66 da 5a 6f 46 d2 3f 00 48 e9 44 9e e8 73 3f
       0.2855490100133413 0.004860513915064146
0004b0 b8 b5 9e f4 46 52 cb 3f 8c cf 12 67 00 96 d8 3f
       0.21344839996656417 0.3841553694321582
0004c0 cc 9c a4 00 d3 fc d8 bf d0 73 33 04 26 ea de bf
       -0.39043116629404717 -0.48304129038097887
0004d0 32 69 a7 25 97 a4 ed 3f 3a 13 3c aa 23 13 ed 3f
       0.926341603796834 0.9085863423248164
0004e0 60 f1 16 cf ef bf c8 bf 20 2a 60 46 62 43 b6 bf
       -0.19335744487569695 -0.0869656965079817
0004f0 22 0b 8e c4 36 92 e7 3f a8 ee 5b db 8d 7e c4 bf
       0.7365983809434946 -0.16011212550062237
000500 7c df 0f 1c 6c f6 d6 3f a0 02 af 1b 9f 45 ec bf
       0.35879042377882064 -0.8834987202354405
000510 30 eb 89 24 ff f2 ed 3f 00 ae eb 7b 56 91 79 bf
       0.9359126771590578 -0.006242120579126986
000520 ec c9 a3 c8 48 bf dc bf 34 97 22 b2 87 cc d1 3f
       -0.44917506784182026 0.278108524284437
000530 da d0 33 02 48 4d ed bf 18 a2 f4 5e 84 41 e6 3f
       -0.9156837504401907 0.6954976896859675
000540 5c c3 dc d0 2b 03 d5 bf 48 0d 36 8e 97 42 c8 bf
       -0.32831855198587845 -0.18953222698119476
000550 b4 32 80 56 ac 23 d0 3f 34 94 ad 6b d3 1c ed 3f
       0.2521773190244787 0.9097687819563647
000560 bc a7 52 cf 2e 8b eb 3f 90 69 da 69 66 d2 d1 bf
       0.8607400941157191 -0.2784668000910182
000570 54 3b dc a5 dd 63 e9 bf 50 88 ce 29 86 b9 cc 3f
       -0.7934406508883094 0.22441174546571796
000580 1e e1 07 8b 75 2b e8 bf 46 cd 31 17 31 6a e3 bf
       -0.7553050723500154 -0.6067128613489465
000590 44 55 a1 e7 4e e7 e1 3f 40 20 9f d0 40 a7 9e 3f
       0.5594858669307219 0.02993489526105031
0005a0 80 7c 8b 64 74 04 c2 3f 6c 98 7c cd e6 0b d2 bf
       0.14076094540994077 -0.2819764143663466
0005b0 08 8a 6c 1f e8 1c d8 bf 60 83 f7 d8 17 e1 e0 3f
       -0.37676432675121463 0.5274771916993863
0005c0 aa 07 e7 da b4 77 e4 3f 6c 44 aa 5b fc 6e de 3f
       0.6396126056135831 0.4755240340392166
0005d0 ee 56 d7 24 e8 b7 e1 3f 8c 2e bf ee 04 98 ec 3f
       0.5536995620302301 0.8935570395492092
0005e0 68 c8 57 ac f1 b4 d4 bf 34 49 56 b3 94 d7 ec 3f
       -0.3235439475093984 0.9013160231282087
0005f0 a0 a0 43 4b 8f d7 ed bf b4 3a 17 9c 4d e0 e8 3f
       -0.9325634450915636 0.7773807572028404
000600 58 f5 f7 32 9f 7b e4 bf c0 5c a5 b7 b7 ce a4 3f
       -0.6400905604820464 0.04063963047763641
000610 68 f1 16 1b 59 00 c3 bf 0c d2 52 71 fa a8 d4 bf
       -0.14844812224135784 -0.32281361643552553
000620 f4 cf eb a6 98 0f de 3f 28 b7 00 86 c5 73 c1 3f
       0.46970192242520103 0.1363455681143304
000630 62 2a 02 94 23 70 ee 3f 80 87 44 07 3c b7 8b 3f
       0.9511888399877757 0.013533085796158195
000640 48 ce 2e 8b 2f 69 c8 3f 20 ae 9d c5 d4 7c cb 3f
       0.19071001335179205 0.21474704407897693
000650 26 3e ed f5 62 80 ee 3f fa 80 cb c9 3d 3e ef 3f
       0.9531721881157338 0.9763478223140105
000660 34 89 a7 a5 66 ad dd bf d6 26 b5 c3 3e 0a e3 3f
       -0.4637085550040354 0.5950006315626648
000670 a0 a3 73 3a 9f 3f d3 3f 28 b8 1f f5 22 f4 dc 3f
       0.3007581778352293 0.4524009126461146
000680 96 31 9b e4 53 8d e6 bf c8 79 d0 bd 7b 20 ce 3f
       -0.7047519173589076 0.23536631363181315
000690 00 20 46 b4 9f 15 28 bf 60 27 b5 b6 f4 df b0 bf
       -0.00018374990953540227 -0.06591729603419827
0006a0 a0 51 d8 70 87 33 e2 3f 4a 61 62 22 ce dc ef bf
       0.5687901691440409 -0.9957037612503339
0006b0 14 b5 91 b9 10 5d d8 bf d0 d9 28 33 48 97 d7 3f
       -0.38068025705327213 0.36860852237751107
0006c0 78 41 a6 03 c7 ef ee bf c0 ff 8f ce 78 3a d5 3f
       -0.9667697020795876 0.33169384166830795
0006d0 48 d8 4a 8d 15 d8 d3 bf 5c ea 79 c7 61 51 dd bf
       -0.3100637321289281 -0.4580921600351411
0006e0 08 9f 89 5c 36 6b e3 bf 74 47 c3 1f b8 d2 d5 3f
       -0.6068374450087228 0.3409862814124758
0006f0 f6 5f 07 fb 94 b8 e5 3f 40 cd 73 51 9c 7c c3 bf
       0.6787819769770056 -0.15224031426587636
000700 10 e1 46 28 0d e9 d2 bf 44 02 a5 d6 6c d5 e6 bf
       -0.29547432835853815 -0.7135528747822453
000710 e6 e3 46 4b f3 3e e9 bf 90 98 55 f3 29 9f c3 bf
       -0.7889343710186238 -0.15329479581413752
000720 30 3a 52 73 41 64 d2 bf c0 50 27 40 32 87 a9 bf
       -0.28736912023387884 -0.04985959084629732
000730 16 fb 57 17 af 29 e0 bf 14 4c 2b 9c 0a dc d1 3f
       -0.5050883727961686 0.2790552640046269
000740 a0 11 5a f4 d9 d7 d8 3f d4 54 c2 5f 24 0b d8 bf
       0.3881745229957918 -0.3756800589702156
000750 cc 9a f4 01 cb 22 df 3f 10 f2 da 7e 51 72 b6 bf
       0.4864985961052468 -0.08768185946514273
000760 20 86 4a c1 a1 0a d7 bf 12 9f ac b8 dd bf ec bf
       -0.3600239169701087 -0.8984211546821561
000770 8c 35 ed fc ee bc df bf b4 8d 5a df 1c 29 de 3f
       -0.4959065885530769 0.4712593251408308
000780 30 28 ba 2d a0 c4 de bf c0 33 b8 08 d3 ed a8 bf
       -0.48075108018440726 -0.04868945580901807
000790 30 bd 0e 9e 28 dd e5 bf 0e 15 8f 19 db 9c eb bf
       -0.6832469069540021 -0.8628974436948356
0007a0 58 b1 60 8a 37 d0 dd 3f f0 33 0e d0 a3 3a e1 bf
       0.46583355439613205 -0.5384081901153177
0007b0 54 85 1c f0 55 0a ea bf ec 70 12 e5 52 ce ef 3f
       -0.8137616815257993 0.9939360117018885
0007c0 48 40 c8 e3 2d 00 d3 bf 0c ba e3 86 10 a3 da bf
       -0.29688594097479326 -0.4162026707917057
0007d0 08 ef c3 04 bf ad ee bf 14 14 7f c2 13 26 d0 3f
       -0.9587092488359028 0.25232404702939104
0007e0 18 08 ee b5 c6 32 e9 bf b0 55 26 67 fc 0b c3 bf
       -0.7874482682530042 -0.14880328213318483
0007f0 44 ac f5 74 7d f0 e2 bf 00 dd f9 9a 8b 8f 8a bf
       -0.5918566974991184 -0.012969103495591217
